…
  Path: {'gnss': '../dataset_5/dataset_high/paddy/sampled_paddy_43', 'adj': '../dataset_5/dataset_high/paddy/sampled_paddy_adj', 'json': '../dataset_5/dataset_high/paddy/Non-Identically_Distributed_Coco/sampled_paddy_43_test.json'}
  Mode: test
  Num_workers: 2
  Max_len: 1000
  Drop_rate: 0
)
--------------------------------------------------------------------------------
2026-03-18 00:22:59,676 - frs - INFO - Model Information:
--------------------------------------------------------------------------------
Model Name: VIT_GIN_Parallel
Model Structure:
vision: VIT(
  (patch_embed): PatchEmbed(
    (proj): Conv2d(1, 108, kernel_size=(1, 1), stride=(1, 1))
    (norm): Identity()
  )
  (pos_drop): Dropout(p=0.0, inplace=False)
  (blocks): Sequential(
    (0): Block(
      (norm1): LayerNorm((108,), eps=1e-05, elementwise_affine=True)
      (attn): Attention(
        (qkv): Linear(in_features=108, out_features=324, bias=True)
        (attn_drop): Dropout(p=0.3, inplace=False)
        (proj): Linear(in_features=108, out_features=108, bias=True)
        (proj_drop): Dropout(p=0.0, inplace=False)
      )
      (drop_path): Identity()
      (norm2): LayerNorm((108,), eps=1e-05, elementwise_affine=True)
      (mlp): Mlp(
        (fc1): Linear(in_features=108, out_features=432, bias=True)
        (act): GELU()
        (drop1): Dropout(p=0.0, inplace=False)
        (fc2): Linear(in_features=432, out_features=108, bias=True)
        (drop2): Dropout(p=0.0, inplace=False)
      )
    )
  )
  (fc_norm): LayerNorm((108,), eps=1e-05, elementwise_affine=True)
  (head): Linear(in_features=108, out_features=2, bias=True)
)
graph: GIN(
  (conv1): GINConv(nn=Sequential(
    (0): Linear(in_features=43, out_features=108, bias=True)
    (1): ReLU()
    (2): Linear(in_features=108, out_features=108, bias=True)
    (3): ReLU()
  ))
  (conv2): GINConv(nn=Sequential(
    (0): Linear(in_features=108, out_features=108, bias=True)
    (1): ReLU()
    (2): Linear(in_features=108, out_features=108, bias=True)
    (3): ReLU()
  ))
  (drop): Dropout(p=0.0, inplace=False)
  (head): Identity()
)
head_image: Linear(in_features=108, out_features=2, bias=True)
	in_features=108, out_features=2, bias=True
image_norm: LayerNorm((108,), eps=1e-05, elementwise_affine=True)
	(108,), eps=1e-05, elementwise_affine=True
head_graph: Linear(in_features=108, out_features=2, bias=True)
…
